src/models/DL/final_dl_model_label.pt (torch, 7327 bytes, 3 tensors)

fc1.weight f4 [50, 22]
00000000: df24 c53d 1094 20bd f1f8 b9be dbd9 0bbe
00000010: 94f2 383e 8b85 08be 743a 4b3e 8cca 843a
00000020: d71f 2cbe abc7 4e3e e39e 72bd fff2 10bc
00000030: add2 ed3d ffe3 16be 51b0 403d fd29 243f
00000040: e623 66be 3fb8 733d 8b0c a63d d659 013d
00000050: 0be4 393d 6709 69bf ac1b 07bd 36b8 9b3d
00000060: a72e 263e c5a6 133e e6a8 47be 2c54 c8bd
00000070: 0d1c 0ebd ed6c 273e 8b25 eb3d 1752 04be
00000080: f904 913d 163f dabd 2cd7 d0be 32cb 67be
00000090: 76c9 29be 224b 41be db05 7c3e a4d0 f93d
000000a0: b949 893d 68e9 0d3e 6091 debc 22f2 633f
000000b0: 8299 e03b 0bb5 76bd 3f8b dd3e 4ece 393d
000000c0: da5a 02be 03a7 06bd c7e9 2e3e 1b6b 88be
000000d0: 8156 663e e8c2 8b3d 2698 343e d41b 063e
000000e0: 053d 27bc f9e8 7c3e 4568 cabd ddc1 8dbe
000000f0: 5126 173d 3b1f b13d 4371 2bbd 1b84 3bbe
00000100: 782f 473e bf87 a13e 5b3a cc3d 5153 653e
00000110: 28fc a0be a39e 363e a692 3d3e dcc9 5c3e
00000120: d2b7 2d3e 5770 26be dc50 d5bd 3802 973e
00000130: 1d90 e43d 9128 093e a029 393e c7f0 59bd
00000140: f4ba 363e 8c01 933e e7e1 76bd d6a5 d4bd
00000150: ab5b dabd 564e 5abc 28c3 333d 3597 61bf
00000160: 402b 3f3e 6c04 763d 0abd 2e3e 4dab 2c3d
00000170: d25b 7dbd 8e88 c03c 371c 8fbd 7f69 e7bd
00000180: dadf 39be 1a6b 12bd bdde 59bd f09c b7bd
00000190: f261 a3be 9611 343c 624f 163e 159e 95be
000001a0: 3ee0 c43c fac6 82bb ce83 7d3d 078b d8bd
000001b0: a77c 97bd ae6c 243f 8b87 eabd 2c88 303e
000001c0: 8102 71bb bbfc 4abe d6e5 4b3c 8d1a 3a3e
000001d0: c195 7e3e e0e5 2abe 5a4a 423e a0ec 51be
000001e0: e929 4f3d 2064 15be dffc 1fbd 6c82 503e
000001f0: 23f3 ed3b c96d cebe 758a aabd 9fc1 1c3c
00000200: 5a39 17be fe10 083e 6a2a 1fbd 5f28 de3e
00000210: b1fa 243e 4c01 1d3d 2ebf a73d 45fe ddbb
00000220: 2775 433b 43b7 48be e822 37be 5fc0 7cbd
00000230: d87c 0fbe 869d 8cbe e259 b73c 13e7 513d
00000240: de8b b7bd 5df6 2b3e 9422 203e f731 16bf
00000250: 97a1 583e 8a76 73bc d854 113d 13b7 03bd
00000260: 503f 553e b82f 5c3f 235e 05be 94b5 34be
00000270: 6644 483e 9e91 d43d caf0 37be 709e 73bc
00000280: 20ba 393e d849 15bd c262 fcbd 84c4 d0bc
00000290: 926d d0bd 3f83 44be 0e36 bb3d b0a8 e9bd
000002a0: e1b3 2c3e e11c 33be 70fa 113e 6694 b6bd
000002b0: 64f8 8e3d 4d5f 81bd 7fb0 25bd c70f aebd
000002c0: 299a 013e 9bab 6f3e fd9e 36be 43a9 3fbd
000002d0: 64d8 08bd 35c5 59be 3861 07bd fccb f3bd
000002e0: 0595 c73d e7a4 5b3d 27f1 b23e 684b 9c3e
000002f0: 7e43 f2bc ea66 073e 495e 42bd 5447 b93e
00000300: c746 3ebd 5a11 e53b 6275 b93d 5880 75bd
00000310: 5347 2abd 702e 4fbf 7751 fcbc d576 203e
00000320: 7857 1dbe e7e3 e4bd c466 363e e65a 8dbd
00000330: 290a 5bbe 485f 123e a89a 92be 749e 743e
00000340: dffb 9b3e 9686 183d 38b4 c93e 4004 8ebd
00000350: 2e26 273e b4d2 743e e3df f83b 0073 4bbe
00000360: c867 57be 576a 903d 5903 95bd 1e4a 03bf
00000370: 6878 5b3e 0673 cd3d 0cf1 773d 29eb aabd
00000380: c130 823d c837 02bc 7ea4 9abd f5cf 393b
00000390: d2e9 ba3d 9911 4abe a817 7abe 079d 58be
000003a0: a8d6 53be 5789 413e 2b7d ffbd 3d50 04bf
000003b0: d206 a73e 98ac a83d 5fd0 7e3d 1646 b4bd
000003c0: d1e0 f43d a39e 453f d34e 26be 18da c33d
000003d0: a16c 45be a2f2 4f3e d9b0 98bd 58ec 2bbe
000003e0: 2385 043c d5cc 3fbe 6440 c7bd ad58 8b3d
000003f0: 5c54 11be ae42 3a3e 9dd7 e6bd c2de 9fbd
0.09626173 -0.039203703 -0.3632274 -0.13657324 0.18061286 -0.13332193 0.19846517 0.0010131164
-0.16809021 0.20193355 -0.059233557 -0.008846997 0.11612449 -0.14735411 0.04704315 0.6412657
-0.22474632 0.059501883 0.08107861 0.031579815 0.045383494 -0.9102997 -0.032985374 0.07603495
0.16228734 0.14419086 -0.19498023 -0.097816795 -0.03469472 0.16350146 0.1148177 -0.1292194
0.070810266 -0.10656564 -0.40789163 -0.22636107 -0.16580757 -0.18876317 0.24611609 0.12197998
0.067035146 0.13858569 -0.02716893 0.8904134 0.006854237 -0.06023125 0.432703 0.045362763
-0.1272997 -0.03287412 0.17081366 -0.26644215 0.22493936 0.06824285 0.17636165 0.13096553
-0.010207419 0.24698247 -0.09883169 -0.27686968 0.036901776 0.08648535 -0.04185606 -0.18312113
0.19451702 0.3154888 0.09972068 0.22395064 -0.3144238 0.17833953 0.18512973 0.21561378
0.16964653 -0.16253792 -0.10415813 0.2949388 0.111603 0.13394381 0.18082285 -0.05320814
0.17844754 0.28712118 -0.06027403 -0.10383193 -0.106620155 -0.013324341 0.043887287 -0.8812135
0.18668842 0.06006281 0.170643 0.042155553 -0.061855145 0.023502614 -0.069878034 -0.11299419
-0.18151799 -0.03574667 -0.053190935 -0.0896548 -0.31910664 0.010990521 0.1467872 -0.2922217
0.024032708 -0.003991005 0.061893277 -0.10573392 -0.073968224 0.6422833 -0.11451634 0.17239445
-0.0036775174 -0.19822972 0.012444934 0.18174191 0.24861814 -0.16689253 0.18973675 -0.20500422
0.050577078 -0.14588976 -0.039059516 0.20362252 0.00726165 -0.40318134 -0.0832719 0.009567647
-0.14767972 0.13287732 -0.03885881 0.43390176 0.16111256 0.038331315 0.081907615 -0.006774696
0.0029824467 -0.19601159 -0.1788441 -0.061706897 -0.14012468 -0.2746393 0.022381727 0.05124576
-0.089622244 0.16793199 0.1563819 -0.5866999 0.21155392 -0.014859805 0.035481304 -0.032157015
0.20824933 0.86010313 -0.13024192 -0.17647392 0.19557342 0.10379337 -0.17962947 -0.014869317
0.18137407 -0.036447376 -0.12323524 -0.025484331 -0.10177149 -0.19190691 0.091411695 -0.11409128
0.16865493 -0.17491485 0.1425569 -0.089150235 0.069809705 -0.06317005 -0.040451523 -0.08499103
0.12656464 0.23405306 -0.17834087 -0.04679228 -0.03340949 -0.21266635 -0.0330517 -0.11904141
0.0974522 0.05362406 0.3494961 0.3052628 -0.029573198 0.13222852 -0.0474532 0.36187232
-0.046454217 0.006990594 0.09055592 -0.05993685 -0.041571926 -0.80930233 -0.030800564 0.15670331
-0.15365398 -0.111762814 0.1781264 -0.06902103 -0.21390595 0.1429416 -0.28633618 0.2388857
0.304656 0.037237726 0.39395308 -0.069344044 0.16323158 0.23908502 0.0075950488 -0.19868088
-0.21035683 0.07051533 -0.07276029 -0.5128497 0.2143265 0.100317046 0.060532615 -0.083456345
0.06356955 -0.00794787 -0.07550906 0.0028352712 0.09126629 -0.19733275 -0.24423087 -0.21153651
-0.20687354 0.18900047 -0.12475046 -0.51684934 0.3262239 0.08236045 0.062210437 -0.0880243
0.11956943 0.77195185 -0.16241007 0.095630825 -0.1927972 0.20307401 -0.07455606 -0.16789377
0.008088383 -0.18730481 -0.097290784 0.06804023 -0.14192337 0.18189499 -0.11271594 -0.078061596

fc1.bias f4 [50]
00000000: 1453 8cbb 89ce dd3d d1d7 51bd 0821 523e
00000010: 4df2 29be 7f4a 8bbd 26ba 99bd c625 933c
00000020: 6e6e 2f3e e388 27be e6c1 3cbe a53e 29be
00000030: 0a4d 203e ef19 3e3e 37ca 66bd 31c9 d03d
00000040: 983a 1b3e e662 2fbc 3368 4f3c b682 b13d
00000050: ebdf 30be 0486 c63d 78cc a3bc 033c cebc
00000060: 0516 87bd f3a5 093c 350a 1bbe b691 ca3d
00000070: 4d79 823c 7c22 08be 3646 583e 6f57 7bbe
00000080: a869 72be 8f67 3b3e b1f4 47be d0e5 68be
00000090: 2f0f 843d d7e1 4a3e 1f3f d3bd 1329 853e
000000a0: b6f9 4e3e 967e b6bd 422c 9e3d 7250 adbd
000000b0: d800 2dbe 22e9 71bd f90e ca3d b3c9 df3c
000000c0: 5ff7 7ebd fd10 9dbd
-0.0042823646 0.10830409 -0.05123121 0.20520413 -0.16596337 -0.068013184 -0.07506208 0.017962348
0.1713197 -0.16360812 -0.18433341 -0.16527803 0.15654388 0.1856458 -0.05634519 0.10194624
0.1515907 -0.010704732 0.01265912 0.08667509 -0.17272918 0.0969353 -0.01999496 -0.0251751
-0.06595997 0.008401382 -0.15140612 0.098910734 0.015926981 -0.13294405 0.21120533 -0.24545072
-0.23673117 0.18301223 -0.19526936 -0.22743917 0.064482085 0.19812714 -0.10314774 0.260079
0.20212445 -0.08910863 0.07723285 -0.08462609 -0.16894853 -0.059060223 0.09866137 0.027317857
-0.06224763 -0.07669256

fc2.weight f4 [1, 50]
00000000: c908 0dbd ef99 963d 80cb 3b3d f042 4dbd
00000010: 1d62 fa3d 618c b23d d48e 393d 32e5 333d
00000020: 7a17 4dbd c37a 1bbe 83b0 533c 2dea 653d
00000030: da23 08be 9015 a5bd 3e7a ec3d eb03 50bd
00000040: 0a9c 053e 8282 eabd 42e8 7d3d c646 90bd
00000050: 4fce 4b3d 6f8f f2bd 7d97 28bd a44a 24bc
00000060: d69a d53d 2290 6bbd 87d2 9c3d c9d1 773c
00000070: 5e01 07be 891a 373d d315 a3bd bb4b 643d
00000080: 6b73 543d d7ec f43d d71b 89bd 4ff7 dc3d
00000090: a6ad db3d 89dc d23b 0798 8ebd cae8 4bbd
000000a0: 8012 6fbd 78f0 4ebc a511 68bd 0346 0dbe
000000b0: ccc6 0cbd 5cfe 2b3d 6059 67bd 9e9a c5bd
000000c0: 537b 92bd 693c 823d
-0.034432206 0.07353579 0.04584837 -0.050112665 0.12225745 0.087181814 0.045302227 0.04391975
-0.050071217 -0.15183549 0.012920502 0.05613153 -0.13294926 -0.08060753 0.11546753 -0.050784986
0.13047805 -0.11450674 0.061989076 -0.07044749 0.049757298 -0.11843764 -0.041160095 -0.010027561
0.10429923 -0.057510503 0.076573424 0.0151257 -0.13184115 0.04470304 -0.07963147 0.055736285
0.051867884 0.11959236 -0.06694763 0.10789358 0.1072648 0.0064349812 -0.06962591 -0.04978255
-0.058367252 -0.012630574 -0.056657452 -0.13796239 -0.034369275 0.041990623 -0.05648172 -0.096486315
-0.071524285 0.063591786
