src/models/DL/final_dl_model_label.pt (torch, 6943 bytes, 3 tensors)

fc1.weight f4 [50, 20]
000000 d4 c0 30 3d 87 9b 76 be 59 91 12 be 81 4f 93 3e
       0.043152645 -0.24082766 -0.14313258 0.28771594
000010 07 64 de 3d 3f 29 a3 3d e9 11 cc bd 59 98 1c 3c
       0.108589225 0.079668514 -0.099643536 0.009557807
000020 30 c7 43 3e 35 22 80 3e 01 b3 4d 3e 33 9b 28 3e
       0.19118953 0.25026098 0.20087816 0.16465454
000030 97 c5 5b 3d be c3 97 bd 7e 44 56 3e 78 f0 17 3e
       0.053655233 -0.07410382 0.20924565 0.14837825
000040 67 51 32 3e 1a ec 89 3d ec 99 f3 bd 3c 48 93 be
       0.17413865 0.06734486 -0.11894593 -0.28766048
000050 3c e5 1d bd a3 52 2b 3e 23 19 15 be 34 6a 22 bd
       -0.038548693 0.16730742 -0.1456037 -0.039652064
000060 ff de 35 be 08 d9 f1 bc 99 98 16 3e a4 72 7d bb
       -0.17760848 -0.029522434 0.14706649 -0.0038673067
000070 7b ab ee 3d 39 56 8d 3d fa 4d 07 bd f4 85 3a be
       0.11653801 0.06901211 -0.03303335 -0.18215162
000080 37 e4 0b be 38 77 4b bd 83 89 56 3e 9f 0a 81 3d
       -0.13661276 -0.049674243 0.20950894 0.06300854
000090 ff 25 c5 bd c9 96 7f bd 2f 8b 26 be 64 da 6a 3d
       -0.09626388 -0.06239966 -0.16264032 0.05733718
0000a0 c1 3d 29 be c3 6e 37 be 89 fe 48 be 22 f5 58 3d
       -0.16527463 -0.17913346 -0.19628347 0.052968152
0000b0 c1 fa b4 bd a6 72 3b be df 9f c3 3a 07 bf 46 3e
       -0.0883689 -0.18305454 0.0014924965 0.19408809
0000c0 42 6f 21 3d 07 9c 0c 3e 71 b2 00 3e 00 09 e5 bc
       0.039412744 0.13731395 0.1256807 -0.027958393
0000d0 7b 35 2d bd b4 99 28 bd 06 15 9c 3d 81 f8 ff 3d
       -0.04228733 -0.041162208 0.076211974 0.1249857
0000e0 ed 80 47 be 4a 7f 02 be f3 db 31 3e b4 7c 30 3d
       -0.19482775 -0.1274387 0.1736906 0.043087676
0000f0 ce ca 2b 3d ab d0 e4 bd 46 99 f2 3d d3 cb d3 bc
       0.041941456 -0.11172613 0.11845641 -0.025854027
000100 ef 09 6b bd 48 3f b9 3d 25 3b d5 bd 56 0b 68 bd
       -0.05738252 0.09045273 -0.104116715 -0.056651436
000110 59 30 12 3e 4a f4 17 be 92 56 32 3e 40 93 5d 3d
       0.14276256 -0.14839283 0.17415836 0.054095507
000120 e0 41 d7 3b 4d c7 20 bd 2c 82 cc 3e 20 de 91 be
       0.006569132 -0.039252568 0.39943063 -0.2848978
000130 42 7a 1e 3e 11 77 ff 3d 50 77 cb bc 3f e4 df be
       0.15476325 0.12473882 -0.024837166 -0.43728825
000140 1b 6c 97 be cc f2 62 bd 43 09 67 bc 1f e7 0a be
       -0.29574665 -0.05540733 -0.014101329 -0.13564728
000150 d4 d3 57 3d 87 91 3b bd 83 76 61 bd 36 83 1a be
       0.05269225 -0.045793083 -0.055044662 -0.15089116
000160 05 df 1e be 65 5c 3f 3e a6 68 a1 3d c0 d1 63 be
       -0.15514763 0.1868759 0.07881288 -0.22247982
000170 46 89 27 3b e2 5a 8d bd 95 0c 59 3d 01 c4 3e 3e
       0.0025564 -0.069021 0.052990515 0.18629457
000180 00 29 a8 3c 01 a0 ef bc 58 14 19 3e 8a 68 69 be
       0.020527363 -0.0292511 0.14949167 -0.22793785
000190 0f df cd 3d bb b9 8f 3d 92 f6 d6 3d 99 24 88 3d
       0.10052311 0.07017847 0.10496248 0.066476054
0001a0 6a 61 2c be 0e 1d be 3d 0d cf e7 3d 4a 32 11 be
       -0.16834036 0.092828855 0.11318789 -0.1417934
0001b0 44 f3 0e bc b0 06 06 3e eb 47 c6 bd 6d c4 2d be
       -0.008724991 0.13088489 -0.09681686 -0.16969462
0001c0 a4 52 aa 3d fd 4a a6 bc af ab 48 3e 79 eb 5b 3e
       0.08316544 -0.02029943 0.19596742 0.21476544
0001d0 ad cc 51 bd 21 ec 16 be 4b b2 26 3d ba 0a 06 be
       -0.051220585 -0.14738514 0.040697377 -0.1309003
0001e0 ab 56 13 3e 2e 68 46 3e 3c dc 4c 3e 29 f0 dc 3d
       0.1438853 0.19375679 0.20005888 0.107879944
0001f0 44 ea 39 be 07 6b 19 3e 04 f5 7a bd 44 ce 39 3e
       -0.18155771 0.14982234 -0.06126882 0.1814509
000200 7a 4f 81 bd a7 31 d8 3c 98 f5 25 be 32 fd 02 3e
       -0.06313987 0.026390864 -0.16206968 0.12791899
000210 61 1a 26 3e 6e a1 e8 3c cf 8a 26 be 30 e3 3d be
       0.16221 0.028397288 -0.16263889 -0.18543696
000220 43 5c 29 3a 24 01 cc bc 06 a4 2b be d2 b8 45 be
       0.00064605864 -0.024902888 -0.16761789 -0.19308785
000230 0d 43 13 3e c2 ca 13 be bc 75 15 3e b4 0e b0 bd
       0.14381047 -0.14432815 0.14595693 -0.085965544
000240 56 ca 3e be e4 6b e6 bd 28 40 62 3e 31 3b d2 3d
       -0.18631873 -0.11251047 0.22094786 0.10265196
000250 a0 e9 11 bd ba 7f b2 bc a2 b1 94 3d ea 84 bb bd
       -0.035623193 -0.02178942 0.07260443 -0.09156211
000260 9b 44 0e be cd 3a 52 3d 7f 27 8a bc 1d e9 63 be
       -0.13893358 0.051325608 -0.016864536 -0.22256894
000270 ed 3e 1e 3e 0b c7 d2 bd cc 96 aa 3d a1 84 ed 3d
       0.15453692 -0.10291871 0.083295435 0.115975626
000280 6e b1 51 be 97 4a f3 3d 23 e3 cb bc db 30 43 3d
       -0.2047784 0.11879461 -0.02488858 0.047654014
000290 3b f3 6e be 45 31 2d 3d d6 79 7a 3e 9f ad f4 bd
       -0.23334973 0.042283315 0.24460539 -0.11947178
0002a0 0e 35 86 be 40 e4 5a 3d 27 bc d0 3d 47 7d dd 3c
       -0.26212353 0.053440332 0.10192137 0.027037276
0002b0 54 b4 72 3c 49 29 56 3e e6 04 d7 be b9 9f 00 be
       0.014813501 0.20914187 -0.41995925 -0.1256093
0002c0 6a 71 67 bd f4 77 58 3d 61 08 30 3e 6b d6 4d 3f
       -0.056504644 0.05284877 0.17190696 0.804053
0002d0 c7 1c 35 be f9 88 d1 bd 3d e9 3f 3d 37 ad b0 bd
       -0.17686759 -0.102312036 0.046853293 -0.08626788
0002e0 02 e5 23 3e 66 3c 4d be ce f9 08 bd 49 47 55 be
       0.16005328 -0.20042571 -0.033441357 -0.20827974
0002f0 72 07 24 bd a0 b8 0e be 71 1f 52 3d bb 62 22 be
       -0.040046163 -0.13937616 0.051299516 -0.15857975
000300 eb 3a 5d be 62 13 b8 3c 45 3f 8a 3e 09 69 87 be
       -0.21604507 0.02247018 0.27001396 -0.26447323
000310 90 e8 40 be d7 51 72 3e e6 42 2e be 5f 90 d3 be
       -0.18838716 0.23664032 -0.17017707 -0.41321084
000320 b6 20 51 3e 19 50 f2 3b eb c9 78 be b6 4a 06 3c
       0.20422634 0.0073948023 -0.24295776 0.008196523
000330 9c 90 05 3e 6e 04 3a 3e 6a c2 d5 3d d2 4e dc bd
       0.13043445 0.18165752 0.10437472 -0.10757221
000340 fd 71 83 be cc a6 5e bd 8e d1 10 be 6e 76 4f be
       -0.25672904 -0.05435829 -0.14142439 -0.20260021
000350 3a 10 36 3e ae a7 52 3d c2 a8 97 3d aa df eb 3c
       0.17779627 0.051429443 0.07405235 0.028793175
000360 0a d9 48 be 97 8b 15 be 79 9a 8c 3d f5 8c b2 be
       -0.19614044 -0.1460403 0.06865401 -0.34873167
000370 5f 64 c9 bc 47 0a 07 3e 1e 36 b2 3d 2f e4 25 be
       -0.024583993 0.13187514 0.08701728 -0.16200326
000380 f0 24 2e 3e 46 3a 01 3e 01 84 d4 3d d6 3f e5 bd
       0.17006278 0.12619886 0.1037674 -0.11193816
000390 33 1f 04 bf a6 a0 eb be 38 e8 90 be e2 14 c7 be
       -0.51610106 -0.46021003 -0.2830217 -0.3888312
0003a0 07 fe 8e be f8 ab 85 be 79 3c 50 be 16 e8 f2 3d
       -0.27928182 -0.26107764 -0.20335568 0.11860673
0003b0 19 91 a7 bd 72 bd ea 3c a5 93 cd bd ea 1a 03 3f
       -0.08181972 0.028654788 -0.100379266 0.5121294
0003c0 b1 00 4e 3e fe cd 95 3e 9b 5a 2e be 11 9b eb bd
       0.20117451 0.29258722 -0.1702675 -0.11504186
0003d0 38 c8 2a 3e c6 69 15 bd bb 01 31 3e 29 e1 0b 3c
       0.1667794 -0.036477827 0.17285816 0.008537569
0003e0 95 0a 35 be f4 b0 62 bd 7f 80 6d bd 0d 9a 27 be
       -0.17679818 -0.055344537 -0.05798387 -0.1636736
0003f0 3d 04 3f 3c 29 d4 6d bd 37 68 27 bd b1 e2 07 3e
       0.011658725 -0.05806366 -0.04087087 0.1327007

fc1.bias f4 [50]
000000 03 7d 26 3e 3e 12 23 be 68 94 1e 3e 2a f4 28 3e
       0.16258626 -0.15924928 0.154863 0.16499391
000010 2d e0 73 bd 1e f7 58 bd 31 bf 31 be b2 86 24 be
       -0.059539963 -0.052970044 -0.1735809 -0.16067007
000020 f0 4e bd 3d 25 14 40 3e 68 c0 40 be 16 fd 40 be
       0.09243572 0.18757685 -0.18823397 -0.18846545
000030 ec c1 37 3e 7c 74 0c 3e cf ed 93 3e 8a 9e 18 bc
       0.17945069 0.1371631 0.2889237 -0.009315142
000040 12 b1 93 ba 3a 61 25 be cf 71 23 be 72 c0 c8 3d
       -0.0011267981 -0.1615037 -0.15961383 0.09802331
000050 9e b8 0b 3e de 69 60 be 6d db 09 3d 8b fd 22 3d
       0.13644645 -0.21915385 0.033656526 0.03979258
000060 d8 1f 15 3d 9d 76 c7 bd ca 07 69 bd 4e 5f 9d 3d
       0.03640732 -0.097394206 -0.056892194 0.076841936
000070 a3 b4 80 3d 1a 56 a6 bd c3 7c b9 3d 18 41 f0 3d
       0.06284454 -0.08121891 0.090569995 0.11731166
000080 a1 03 59 be d4 cc 9a bd e8 8c 0c 3d 31 a0 13 be
       -0.2119279 -0.07558599 0.034314066 -0.14416577
000090 a6 5b 1c 3d 82 f5 00 be 73 6a 81 3e 7e 15 ee bd
       0.03817334 -0.12593654 0.25276527 -0.11625193
0000a0 61 ef 31 be 54 51 61 bd 46 c1 f0 3d 49 96 0e be
       -0.17376472 -0.0550092 0.11755614 -0.13924517
0000b0 fb aa 01 be c7 d4 a4 bc d6 13 22 be 26 70 4f bc
       -0.1266288 -0.020120991 -0.1582788 -0.012661016
0000c0 fb d7 1c bd f7 8a 85 3d
       -0.038291913 0.06520646

fc2.weight f4 [1, 50]
000000 95 64 cd bd d9 e6 bc bd 98 ce 86 3c e2 df 37 bd
       -0.1002895 -0.09223718 0.016455933 -0.044891246
000010 bf 40 f1 3d 94 0b c3 bd 50 d7 8f bd 3c bf 4f 3d
       0.117799275 -0.09523693 -0.070234895 0.050719485
000020 9b 85 12 3e b4 ff 07 be 4c 8b b6 3d 87 37 1e 3e
       0.14308779 -0.13281137 0.089132875 0.1545087
000030 46 de ce 3c 4a 67 af bd c6 25 4f be 17 e7 8c 3e
       0.025252473 -0.08564623 -0.20229253 0.27520058
000040 6d e8 98 3d c8 5d 97 bd 04 fc c5 3d ba a9 b9 3d
       0.07466207 -0.07390934 0.09667209 0.09065576
000050 5e 03 38 3d 07 a0 c3 3d f0 95 13 3e 37 16 8b bd
       0.044925086 0.09552007 0.14412665 -0.067913465
000060 db 3b f4 bd 22 2d 33 be d6 5b 01 be 7a c8 a0 3d
       -0.11925479 -0.17497686 -0.12632689 0.07850738
000070 63 55 55 3e 01 33 ae 3d bc b6 81 bd b4 2b ac bd
       0.20833354 0.08505822 -0.06333682 -0.08406773
000080 08 ab 03 3e b0 43 b9 3d 9a 86 c0 bd fc 3f b5 3d
       0.12858212 0.090461135 -0.09400673 0.08850095
000090 ad 80 75 3d d2 68 42 be 34 58 b9 bd 1f a9 24 3e
       0.059937168 -0.18985298 -0.090500265 0.1608014
0000a0 fb b2 a1 3d 20 f4 13 bd c2 de 0e 3e b0 ba 86 be
       0.07895466 -0.036121488 0.13952163 -0.26314306
0000b0 9e 35 56 bd b2 30 d2 3d 24 85 a1 3c 47 00 85 be
       -0.052297227 0.10263194 0.019716807 -0.25976774
0000c0 fd 92 06 3d 5a 9e f2 3d
       0.032855023 0.118466094
